COMPLETE_ANN
COMPLETE_ANN
Load: 1.048s, Before split: 0.002064s, Split: 6.914e-05s, After split: 0.006412s
GNN(
  (preprocess): Preprocess(
    node_feature: dim_out=30
    Total: dim_out=30
  )
  (pre_mp): GeneralMultiLayer(
    (Layer_0): GeneralLayer(
      (layer): Linear(
        (model): Linear(in_features=30, out_features=137, bias=False)
      )
      (post_layer): Sequential(
        (0): BatchNorm1d(137, eps=1e-05, momentum=0.1, affine=True, track_running_stats=True)
        (1): PReLU(num_parameters=1)
      )
    )
    (Layer_1): GeneralLayer(
      (layer): Linear(
        (model): Linear(in_features=137, out_features=137, bias=False)
      )
      (post_layer): Sequential(
        (0): BatchNorm1d(137, eps=1e-05, momentum=0.1, affine=True, track_running_stats=True)
        (1): PReLU(num_parameters=1)
      )
    )
  )
  (mp): GNNSkipStage(
    (block0): GNNSkipBlock(
      (f): Sequential(
        (0): GeneralLayer(
          (layer): GeneralConv(
            (model): GeneralConvLayer(137, 137)
          )
          (post_layer): Sequential(
            (0): BatchNorm1d(137, eps=1e-05, momentum=0.1, affine=True, track_running_stats=True)
          )
        )
      )
      (act): PReLU(num_parameters=1)
    )
    (block1): GNNSkipBlock(
      (f): Sequential(
        (0): GeneralLayer(
          (layer): GeneralConv(
            (model): GeneralConvLayer(137, 137)
          )
          (post_layer): Sequential(
            (0): BatchNorm1d(137, eps=1e-05, momentum=0.1, affine=True, track_running_stats=True)
          )
        )
      )
      (act): PReLU(num_parameters=1)
    )
    (block2): GNNSkipBlock(
      (f): Sequential(
        (0): GeneralLayer(
          (layer): GeneralConv(
            (model): GeneralConvLayer(137, 137)
          )
          (post_layer): Sequential(
            (0): BatchNorm1d(137, eps=1e-05, momentum=0.1, affine=True, track_running_stats=True)
          )
        )
      )
      (act): PReLU(num_parameters=1)
    )
    (block3): GNNSkipBlock(
      (f): Sequential(
        (0): GeneralLayer(
          (layer): GeneralConv(
            (model): GeneralConvLayer(137, 137)
          )
          (post_layer): Sequential(
            (0): BatchNorm1d(137, eps=1e-05, momentum=0.1, affine=True, track_running_stats=True)
          )
        )
      )
      (act): PReLU(num_parameters=1)
    )
    (block4): GNNSkipBlock(
      (f): Sequential(
        (0): GeneralLayer(
          (layer): GeneralConv(
            (model): GeneralConvLayer(137, 137)
          )
          (post_layer): Sequential(
            (0): BatchNorm1d(137, eps=1e-05, momentum=0.1, affine=True, track_running_stats=True)
          )
        )
      )
      (act): PReLU(num_parameters=1)
    )
    (block5): GNNSkipBlock(
      (f): Sequential(
        (0): GeneralLayer(
          (layer): GeneralConv(
            (model): GeneralConvLayer(137, 137)
          )
          (post_layer): Sequential(
            (0): BatchNorm1d(137, eps=1e-05, momentum=0.1, affine=True, track_running_stats=True)
          )
        )
      )
      (act): PReLU(num_parameters=1)
    )
  )
  (post_mp): GNNGraphHead(
    (layer_post_mp): MLP(
      (model): Sequential(
        (0): GeneralMultiLayer(
          (Layer_0): GeneralLayer(
            (layer): Linear(
              (model): Linear(in_features=137, out_features=137, bias=False)
            )
            (post_layer): Sequential(
              (0): BatchNorm1d(137, eps=1e-05, momentum=0.1, affine=True, track_running_stats=True)
              (1): PReLU(num_parameters=1)
            )
          )
        )
        (1): Linear(
          (model): Linear(in_features=137, out_features=1, bias=True)
        )
      )
    )
  )
)
bn:
  eps: 1e-05
  mom: 0.1
cfg_dest: config.yaml
custom_metrics: []
dataset:
  augment_feature: []
  augment_feature_dims: []
  augment_feature_repr: position
  augment_label: 
  augment_label_dims: 0
  cache_load: False
  cache_save: False
  dir: ./datasets
  edge_dim: 128
  edge_encoder: False
  edge_encoder_bn: True
  edge_encoder_name: Bond
…
